…
x': '544', 'is_categorical': True}, 'annotation': {'tag': ['categorical', 'list']}}, {'name': 'wf', 'type': 'FLOAT', 'annotation': {'tag': ['continuous']}}]
Model(
  (heads): ModuleList(
    (0): Head(
      (body): SequentialBlock(
        (0): TabularSequenceFeatures(
          (to_merge): ModuleDict(
            (continuous_module): SequentialBlock(
              (0): ContinuousFeatures(
                (filter_features): FilterFeatures()
                (_aggregation): ConcatFeatures()
              )
              (1): SequentialBlock(
                (0): DenseBlock(
                  (0): Linear(in_features=1, out_features=64, bias=True)
                  (1): ReLU(inplace=True)
                )
              )
              (2): AsTabular()
            )
            (categorical_module): SequenceEmbeddingFeatures(
              (filter_features): FilterFeatures()
              (embedding_tables): ModuleDict(
                (item_id-list): Embedding(28144, 64, padding_idx=0)
                (f_1-list): Embedding(772, 64, padding_idx=0)
                (f_2-list): Embedding(854, 64, padding_idx=0)
                (f_3-list): Embedding(890, 64, padding_idx=0)
                (f_4-list): Embedding(866, 64, padding_idx=0)
                (f_5-list): Embedding(651, 64, padding_idx=0)
                (f_6-list): Embedding(878, 64, padding_idx=0)
                (f_7-list): Embedding(839, 64, padding_idx=0)
                (f_8-list): Embedding(637, 64, padding_idx=0)
                (f_9-list): Embedding(370, 64, padding_idx=0)
                (f_10-list): Embedding(872, 64, padding_idx=0)
                (f_11-list): Embedding(860, 64, padding_idx=0)
                (f_12-list): Embedding(813, 64, padding_idx=0)
                (f_13-list): Embedding(906, 64, padding_idx=0)
                (f_14-list): Embedding(889, 64, padding_idx=0)
                (f_15-list): Embedding(657, 64, padding_idx=0)
                (f_16-list): Embedding(659, 64, padding_idx=0)
                (f_17-list): Embedding(615, 64, padding_idx=0)
                (f_18-list): Embedding(818, 64, padding_idx=0)
                (f_19-list): Embedding(775, 64, padding_idx=0)
                (f_20-list): Embedding(413, 64, padding_idx=0)
                (f_21-list): Embedding(891, 64, padding_idx=0)
                (f_22-list): Embedding(882, 64, padding_idx=0)
                (f_23-list): Embedding(511, 64, padding_idx=0)
                (f_24-list): Embedding(589, 64, padding_idx=0)
                (f_25-list): Embedding(851, 64, padding_idx=0)
                (f_26-list): Embedding(780, 64, padding_idx=0)
                (f_27-list): Embedding(424, 64, padding_idx=0)
                (f_28-list): Embedding(438, 64, padding_idx=0)
                (f_29-list): Embedding(754, 64, padding_idx=0)
                (f_30-list): Embedding(901, 64, padding_idx=0)
                (f_31-list): Embedding(769, 64, padding_idx=0)
                (f_32-list): Embedding(903, 64, padding_idx=0)
                (f_33-list): Embedding(874, 64, padding_idx=0)
                (f_34-list): Embedding(735, 64, padding_idx=0)
                (f_35-list): Embedding(668, 64, padding_idx=0)
                (f_36-list): Embedding(859, 64, padding_idx=0)
                (f_37-list): Embedding(470, 64, padding_idx=0)
                (f_38-list): Embedding(819, 64, padding_idx=0)
                (f_39-list): Embedding(796, 64, padding_idx=0)
                (f_40-list): Embedding(718, 64, padding_idx=0)
                (f_41-list): Embedding(827, 64, padding_idx=0)
                (f_42-list): Embedding(782, 64, padding_idx=0)
                (f_43-list): Embedding(895, 64, padding_idx=0)
                (f_44-list): Embedding(871, 64, padding_idx=0)
                (f_45-list): Embedding(900, 64, padding_idx=0)
                (f_46-list): Embedding(883, 64, padding_idx=0)
                (f_47-list): Embedding(885, 64, padding_idx=0)
                (f_48-list): Embedding(405, 64, padding_idx=0)
                (f_49-list): Embedding(807, 64, padding_idx=0)
                (f_50-list): Embedding(902, 64, padding_idx=0)
                (f_51-list): Embedding(898, 64, padding_idx=0)
                (f_52-list): Embedding(757, 64, padding_idx=0)
                (f_53-list): Embedding(708, 64, padding_idx=0)
                (f_54-list): Embedding(786, 64, padding_idx=0)
                (f_55-list): Embedding(880, 64, padding_idx=0)
                (f_56-list): Embedding(869, 64, padding_idx=0)
                (f_57-list): Embedding(812, 64, padding_idx=0)
                (f_58-list): Embedding(706, 64, padding_idx=0)
                (f_59-list): Embedding(857, 64, padding_idx=0)
                (f_60-list): Embedding(873, 64, padding_idx=0)
                (f_61-list): Embedding(899, 64, padding_idx=0)
                (f_62-list): Embedding(897, 64, padding_idx=0)
                (f_63-list): Embedding(888, 64, padding_idx=0)
                (f_64-list): Embedding(763, 64, padding_idx=0)
                (f_65-list): Embedding(814, 64, padding_idx=0)
                (f_66-list): Embedding(887, 64, padding_idx=0)
                (f_67-list): Embedding(756, 64, padding_idx=0)
                (f_68-list): Embedding(904, 64, padding_idx=0)
                (f_69-list): Embedding(886, 64, padding_idx=0)
                (f_70-list): Embedding(331, 64, padding_idx=0)
                (f_71-list): Embedding(905, 64, padding_idx=0)
                (f_72-list): Embedding(884, 64, padding_idx=0)
                (f_73-list): Embedding(545, 64, padding_idx=0)
              )
            )
            (pretrained_embedding_module): PretrainedEmbeddingFeatures(
              (filter_features): FilterFeatures()
            )
          )
          (_aggregation): ConcatFeatures()
          (projection_module): SequentialBlock(
            (0): DenseBlock(
              (0): Linear(in_features=4800, out_features=100, bias=True)
              (1): ReLU(inplace=True)
            )
          )
          (_masking): CausalLanguageModeling()
        )
        (1): SequentialBlock(
          (0): DenseBlock(
            (0): Linear(in_features=100, out_features=64, bias=True)
            (1): ReLU(inplace=True)
          )
        )
        (2): TansformerBlock(
          (transformer): XLNetModel(
            (word_embedding): Embedding(1, 64)
            (layer): ModuleList(
              (0): XLNetLayer(
                (rel_attn): XLNetRelativeAttention(
                  (layer_norm): LayerNorm((64,), eps=0.03, elementwise_affine=True)
                  (dropout): Dropout(p=0.3, inplace=False)
                )
                (ff): XLNetFeedForward(
                  (layer_norm): LayerNorm((64,), eps=0.03, elementwise_affine=True)
                  (layer_1): Linear(in_features=64, out_features=256, bias=True)
                  (layer_2): Linear(in_features=256, out_features=64, bias=True)
                  (dropout): Dropout(p=0.3, inplace=False)
                  (activation_function): GELUActivation()
                )
                (dropout): Dropout(p=0.3, inplace=False)
              )
              (1): XLNetLayer(
                (rel_attn): XLNetRelativeAttention(
                  (layer_norm): LayerNorm((64,), eps=0.03, elementwise_affine=True)
                  (dropout): Dropout(p=0.3, inplace=False)
                )
                (ff): XLNetFeedForward(
                  (layer_norm): LayerNorm((64,), eps=0.03, elementwise_affine=True)
                  (layer_1): Linear(in_features=64, out_features=256, bias=True)
                  (layer_2): Linear(in_features=256, out_features=64, bias=True)
                  (dropout): Dropout(p=0.3, inplace=False)
                  (activation_function): GELUActivation()
                )
                (dropout): Dropout(p=0.3, inplace=False)
              )
            )
            (dropout): Dropout(p=0.3, inplace=False)
          )
          (masking): CausalLanguageModeling()
        )
      )
      (prediction_task_dict): ModuleDict(
        (next-item): NextItemPredictionTask(
          (sequence_summary): SequenceSummary(
            (summary): Identity()
            (activation): Identity()
            (first_dropout): Identity()
            (last_dropout): Identity()
          )
          (metrics): ModuleList(
            (0): NDCGAt()
            (1): RecallAt()
          )
          (loss): CrossEntropyLoss()
          (embeddings): SequenceEmbeddingFeatures(
            (filter_features): FilterFeatures()
            (embedding_tables): ModuleDict(
              (item_id-list): Embedding(28144, 64, padding_idx=0)
              (f_1-list): Embedding(772, 64, padding_idx=0)
              (f_2-list): Embedding(854, 64, padding_idx=0)
              (f_3-list): Embedding(890, 64, padding_idx=0)
              (f_4-list): Embedding(866, 64, padding_idx=0)
              (f_5-list): Embedding(651, 64, padding_idx=0)
              (f_6-list): Embedding(878, 64, padding_idx=0)
              (f_7-list): Embedding(839, 64, padding_idx=0)
              (f_8-list): Embedding(637, 64, padding_idx=0)
              (f_9-list): Embedding(370, 64, padding_idx=0)
              (f_10-list): Embedding(872, 64, padding_idx=0)
              (f_11-list): Embedding(860, 64, padding_idx=0)
              (f_12-list): Embedding(813, 64, padding_idx=0)
              (f_13-list): Embedding(906, 64, padding_idx=0)
              (f_14-list): Embedding(889, 64, padding_idx=0)
              (f_15-list): Embedding(657, 64, padding_idx=0)
              (f_16-list): Embedding(659, 64, padding_idx=0)
              (f_17-list): Embedding(615, 64, padding_idx=0)
              (f_18-list): Embedding(818, 64, padding_idx=0)
              (f_19-list): Embedding(775, 64, padding_idx=0)
              (f_20-list): Embedding(413, 64, padding_idx=0)
              (f_21-list): Embedding(891, 64, padding_idx=0)
              (f_22-list): Embedding(882, 64, padding_idx=0)
              (f_23-list): Embedding(511, 64, padding_idx=0)
              (f_24-list): Embedding(589, 64, padding_idx=0)
              (f_25-list): Embedding(851, 64, padding_idx=0)
              (f_26-list): Embedding(780, 64, padding_idx=0)
              (f_27-list): Embedding(424, 64, padding_idx=0)
              (f_28-list): Embedding(438, 64, padding_idx=0)
              (f_29-list): Embedding(754, 64, padding_idx=0)
              (f_30-list): Embedding(901, 64, padding_idx=0)
              (f_31-list): Embedding(769, 64, padding_idx=0)
              (f_32-list): Embedding(903, 64, padding_idx=0)
              (f_33-list): Embedding(874, 64, padding_idx=0)
              (f_34-list): Embedding(735, 64, padding_idx=0)
              (f_35-list): Embedding(668, 64, padding_idx=0)
              (f_36-list): Embedding(859, 64, padding_idx=0)
              (f_37-list): Embedding(470, 64, padding_idx=0)
              (f_38-list): Embedding(819, 64, padding_idx=0)
              (f_39-list): Embedding(796, 64, padding_idx=0)
              (f_40-list): Embedding(718, 64, padding_idx=0)
              (f_41-list): Embedding(827, 64, padding_idx=0)
              (f_42-list): Embedding(782, 64, padding_idx=0)
              (f_43-list): Embedding(895, 64, padding_idx=0)
              (f_44-list): Embedding(871, 64, padding_idx=0)
              (f_45-list): Embedding(900, 64, padding_idx=0)
              (f_46-list): Embedding(883, 64, padding_idx=0)
              (f_47-list): Embedding(885, 64, padding_idx=0)
              (f_48-list): Embedding(405, 64, padding_idx=0)
              (f_49-list): Embedding(807, 64, padding_idx=0)
              (f_50-list): Embedding(902, 64, padding_idx=0)
              (f_51-list): Embedding(898, 64, padding_idx=0)
              (f_52-list): Embedding(757, 64, padding_idx=0)
              (f_53-list): Embedding(708, 64, padding_idx=0)
              (f_54-list): Embedding(786, 64, padding_idx=0)
              (f_55-list): Embedding(880, 64, padding_idx=0)
              (f_56-list): Embedding(869, 64, padding_idx=0)
              (f_57-list): Embedding(812, 64, padding_idx=0)
              (f_58-list): Embedding(706, 64, padding_idx=0)
              (f_59-list): Embedding(857, 64, padding_idx=0)
              (f_60-list): Embedding(873, 64, padding_idx=0)
              (f_61-list): Embedding(899, 64, padding_idx=0)
              (f_62-list): Embedding(897, 64, padding_idx=0)
              (f_63-list): Embedding(888, 64, padding_idx=0)
              (f_64-list): Embedding(763, 64, padding_idx=0)
              (f_65-list): Embedding(814, 64, padding_idx=0)
              (f_66-list): Embedding(887, 64, padding_idx=0)
              (f_67-list): Embedding(756, 64, padding_idx=0)
              (f_68-list): Embedding(904, 64, padding_idx=0)
              (f_69-list): Embedding(886, 64, padding_idx=0)
              (f_70-list): Embedding(331, 64, padding_idx=0)
              (f_71-list): Embedding(905, 64, padding_idx=0)
              (f_72-list): Embedding(884, 64, padding_idx=0)
              (f_73-list): Embedding(545, 64, padding_idx=0)
            )
          )
          (item_embedding_table): Embedding(28144, 64, padding_idx=0)
          (masking): CausalLanguageModeling()
          (pre): Block(
            (module): NextItemPredictionTask(
              (item_embedding_table): Embedding(28144, 64, padding_idx=0)
            )
          )
        )
      )
    )
  )
)
